…
# Display a summary of the model's architecture, including number of trainable parameters and output size of each layer
summary(model, input_size=(1, 28, 28))

...........................................................................................................
      Looking in indexes: https://pypi.org/simple, https://us-python.pkg.dev/colab-wheels/public/simple/
Requirement already satisfied: torchsummary in /usr/local/lib/python3.8/dist-packages (1.5.1)
----------------------------------------------------------------
        Layer (type)               Output Shape         Param #
================================================================
            Conv2d-1           [-1, 16, 28, 28]             160
       BatchNorm2d-2           [-1, 16, 28, 28]              32
            Conv2d-3           [-1, 32, 28, 28]           4,640
       BatchNorm2d-4           [-1, 32, 28, 28]              64
         MaxPool2d-5           [-1, 32, 14, 14]               0
            Conv2d-6           [-1, 64, 14, 14]          18,496
       BatchNorm2d-7           [-1, 64, 14, 14]             128
            Conv2d-8          [-1, 128, 14, 14]          73,856
       BatchNorm2d-9          [-1, 128, 14, 14]             256
        MaxPool2d-10            [-1, 128, 7, 7]               0
           Conv2d-11            [-1, 256, 5, 5]         295,168
      BatchNorm2d-12            [-1, 256, 5, 5]             512
AdaptiveAvgPool2d-13            [-1, 256, 1, 1]               0
          Dropout-14                  [-1, 256]               0
           Linear-15                   [-1, 10]           2,570
================================================================
Total params: 395,882
Trainable params: 395,882
Non-trainable params: 0
----------------------------------------------------------------
Input size (MB): 0.00
Forward/backward pass size (MB): 1.35
Params size (MB): 1.51
Estimated Total Size (MB): 2.86
....................................................................................................................
…
