…
from torchsummary import summary
use_cuda = torch.cuda.is_available()
device = torch.device("cuda" if use_cuda else "cpu")
model = Net().to(device)
summary(model, input_size=(1, 28, 28))

Looking in indexes: https://pypi.org/simple, https://us-python.pkg.dev/colab-wheels/public/simple/
Requirement already satisfied: torchsummary in /usr/local/lib/python3.8/dist-packages (1.5.1)
----------------------------------------------------------------
        Layer (type)               Output Shape         Param #
================================================================
            Conv2d-1           [-1, 16, 28, 28]             160
       BatchNorm2d-2           [-1, 16, 28, 28]              32
            Conv2d-3           [-1, 16, 28, 28]           2,320
       BatchNorm2d-4           [-1, 16, 28, 28]              32
         MaxPool2d-5           [-1, 16, 14, 14]               0
            Conv2d-6           [-1, 32, 14, 14]           4,640
       BatchNorm2d-7           [-1, 32, 14, 14]              64
            Conv2d-8           [-1, 32, 14, 14]           9,248
       BatchNorm2d-9           [-1, 32, 14, 14]              64
        MaxPool2d-10             [-1, 32, 7, 7]               0
           Conv2d-11             [-1, 64, 5, 5]          18,496
      BatchNorm2d-12             [-1, 64, 5, 5]             128
           Conv2d-13             [-1, 64, 3, 3]          36,928
      BatchNorm2d-14             [-1, 64, 3, 3]             128
AdaptiveAvgPool2d-15             [-1, 64, 1, 1]               0
          Dropout-16                   [-1, 64]               0
           Linear-17                   [-1, 10]             650
================================================================
Total params: 72,890
Trainable params: 72,890
Non-trainable params: 0
----------------------------------------------------------------
Input size (MB): 0.00
Forward/backward pass size (MB): 0.64
Params size (MB): 0.28
Estimated Total Size (MB): 0.93

........................................
torch.manual_seed(1)
batch_size = 128

kwargs = {'num_workers': 1, 'pin_memory': True} if use_cuda else {}
…
